…
I0625 09:04:33.311866 12732 net.cpp:325] The NetState phase (0) differed from the phase (1) specified by a rule in layer mnist
I0625 09:04:33.311887 12732 net.cpp:325] The NetState phase (0) differed from the phase (1) specified by a rule in layer accuracy
I0625 09:04:33.311975 12732 net.cpp:52] Initializing net from parameters:
state {
phase: TRAIN
}
layer {
name: "mnist"
type: "Data"
top: "data"
top: "label"
include {
phase: TRAIN
}
transform_param {
mean_file: "/usr/share/digits/digits/jobs/20160625-090328-4c6a/mean.binaryproto"
}
data_param {
source: "/usr/share/digits/digits/jobs/20160625-090328-4c6a/train_db"
batch_size: 64
backend: LMDB
}
}
layer {
name: "scale"
type: "Power"
bottom: "data"
top: "scale"
power_param {
scale: 0.0125
}
}
layer {
name: "conv1"
type: "Convolution"
bottom: "scale"
top: "conv1"
param {
lr_mult: 1
}
param {
lr_mult: 2
}
convolution_param {
num_output: 20
kernel_size: 5
stride: 1
weight_filler {
type: "xavier"
}
bias_filler {
type: "constant"
}
}
}
layer {
name: "pool1"
type: "Pooling"
bottom: "conv1"
top: "pool1"
pooling_param {
pool: MAX
kernel_size: 2
stride: 2
}
}
layer {
name: "conv2"
type: "Convolution"
bottom: "pool1"
top: "conv2"
param {
lr_mult: 1
}
param {
lr_mult: 2
}
convolution_param {
num_output: 50
kernel_size: 5
stride: 1
weight_filler {
type: "xavier"
}
bias_filler {
type: "constant"
}
}
}
layer {
name: "pool2"
type: "Pooling"
bottom: "conv2"
top: "pool2"
pooling_param {
pool: MAX
kernel_size: 2
stride: 2
}
}
layer {
name: "ip1"
type: "InnerProduct"
bottom: "pool2"
top: "ip1"
param {
lr_mult: 1
}
param {
lr_mult: 2
}
inner_product_param {
num_output: 500
weight_filler {
type: "xavier"
}
bias_filler {
type: "constant"
}
}
}
layer {
name: "relu1"
type: "ReLU"
bottom: "ip1"
top: "ip1"
}
layer {
name: "ip2"
type: "InnerProduct"
bottom: "ip1"
top: "ip2"
param {
lr_mult: 1
}
param {
lr_mult: 2
}
inner_product_param {
num_output: 15
weight_filler {
type: "xavier"
}
bias_filler {
type: "constant"
}
}
}
layer {
name: "loss"
type: "SoftmaxWithLoss"
bottom: "ip2"
bottom: "label"
top: "loss"
}
I0625 09:04:33.312026 12732 layer_factory.hpp:76] Creating layer mnist
I0625 09:04:33.339212 12739 db_lmdb.cpp:36] Opened lmdb /usr/share/digits/digits/jobs/20160625-090328-4c6a/train_db
I0625 09:04:33.344825 12732 net.cpp:109] Creating Layer mnist
I0625 09:04:33.344856 12732 net.cpp:414] mnist -> data
I0625 09:04:33.345191 12732 net.cpp:414] mnist -> label
I0625 09:04:33.345207 12732 data_transformer.cpp:25] Loading mean file from: /usr/share/digits/digits/jobs/20160625-090328-4c6a/mean.binaryproto
I0625 09:04:33.371551 12732 data_layer.cpp:45] output data size: 64,3,32,32
I0625 09:04:33.393775 12732 net.cpp:153] Setting up mnist
I0625 09:04:33.393807 12732 net.cpp:160] Top shape: 64 3 32 32 (196608)
I0625 09:04:33.393813 12732 net.cpp:160] Top shape: 64 (64)
I0625 09:04:33.393816 12732 net.cpp:168] Memory required for data: 786688
I0625 09:04:33.393822 12732 layer_factory.hpp:76] Creating layer scale
I0625 09:04:33.393837 12732 net.cpp:109] Creating Layer scale
I0625 09:04:33.393841 12732 net.cpp:457] scale <- data
I0625 09:04:33.393851 12732 net.cpp:414] scale -> scale
I0625 09:04:33.394037 12732 net.cpp:153] Setting up scale
I0625 09:04:33.394044 12732 net.cpp:160] Top shape: 64 3 32 32 (196608)
I0625 09:04:33.394062 12732 net.cpp:168] Memory required for data: 1573120
I0625 09:04:33.394065 12732 layer_factory.hpp:76] Creating layer conv1
I0625 09:04:33.394073 12732 net.cpp:109] Creating Layer conv1
I0625 09:04:33.394076 12732 net.cpp:457] conv1 <- scale
I0625 09:04:33.394081 12732 net.cpp:414] conv1 -> conv1
I0625 09:04:33.395500 12732 net.cpp:153] Setting up conv1
I0625 09:04:33.395517 12732 net.cpp:160] Top shape: 64 20 28 28 (1003520)
I0625 09:04:33.395521 12732 net.cpp:168] Memory required for data: 5587200
I0625 09:04:33.395534 12732 layer_factory.hpp:76] Creating layer pool1
I0625 09:04:33.395541 12732 net.cpp:109] Creating Layer pool1
I0625 09:04:33.395545 12732 net.cpp:457] pool1 <- conv1
I0625 09:04:33.395551 12732 net.cpp:414] pool1 -> pool1
I0625 09:04:33.395623 12732 net.cpp:153] Setting up pool1
I0625 09:04:33.395632 12732 net.cpp:160] Top shape: 64 20 14 14 (250880)
I0625 09:04:33.395634 12732 net.cpp:168] Memory required for data: 6590720
I0625 09:04:33.395638 12732 layer_factory.hpp:76] Creating layer conv2
I0625 09:04:33.395647 12732 net.cpp:109] Creating Layer conv2
I0625 09:04:33.395649 12732 net.cpp:457] conv2 <- pool1
I0625 09:04:33.395654 12732 net.cpp:414] conv2 -> conv2
I0625 09:04:33.397001 12732 net.cpp:153] Setting up conv2
I0625 09:04:33.397024 12732 net.cpp:160] Top shape: 64 50 10 10 (320000)
I0625 09:04:33.397032 12732 net.cpp:168] Memory required for data: 7870720
I0625 09:04:33.397040 12732 layer_factory.hpp:76] Creating layer pool2
I0625 09:04:33.397047 12732 net.cpp:109] Creating Layer pool2
I0625 09:04:33.397052 12732 net.cpp:457] pool2 <- conv2
I0625 09:04:33.397056 12732 net.cpp:414] pool2 -> pool2
I0625 09:04:33.397089 12732 net.cpp:153] Setting up pool2
I0625 09:04:33.397095 12732 net.cpp:160] Top shape: 64 50 5 5 (80000)
I0625 09:04:33.397099 12732 net.cpp:168] Memory required for data: 8190720
I0625 09:04:33.397102 12732 layer_factory.hpp:76] Creating layer ip1
I0625 09:04:33.397114 12732 net.cpp:109] Creating Layer ip1
I0625 09:04:33.397119 12732 net.cpp:457] ip1 <- pool2
I0625 09:04:33.397125 12732 net.cpp:414] ip1 -> ip1
I0625 09:04:33.402040 12732 net.cpp:153] Setting up ip1
I0625 09:04:33.402065 12732 net.cpp:160] Top shape: 64 500 (32000)
I0625 09:04:33.402072 12732 net.cpp:168] Memory required for data: 8318720
I0625 09:04:33.402089 12732 layer_factory.hpp:76] Creating layer relu1
I0625 09:04:33.402101 12732 net.cpp:109] Creating Layer relu1
I0625 09:04:33.402109 12732 net.cpp:457] relu1 <- ip1
I0625 09:04:33.402119 12732 net.cpp:400] relu1 -> ip1 (in-place)
I0625 09:04:33.402139 12732 net.cpp:153] Setting up relu1
I0625 09:04:33.402148 12732 net.cpp:160] Top shape: 64 500 (32000)
I0625 09:04:33.402155 12732 net.cpp:168] Memory required for data: 8446720
I0625 09:04:33.402161 12732 layer_factory.hpp:76] Creating layer ip2
I0625 09:04:33.402173 12732 net.cpp:109] Creating Layer ip2
I0625 09:04:33.402180 12732 net.cpp:457] ip2 <- ip1
I0625 09:04:33.402189 12732 net.cpp:414] ip2 -> ip2
I0625 09:04:33.403602 12732 net.cpp:153] Setting up ip2
I0625 09:04:33.403623 12732 net.cpp:160] Top shape: 64 15 (960)
I0625 09:04:33.403630 12732 net.cpp:168] Memory required for data: 8450560
I0625 09:04:33.403641 12732 layer_factory.hpp:76] Creating layer loss
I0625 09:04:33.404019 12732 net.cpp:109] Creating Layer loss
I0625 09:04:33.404029 12732 net.cpp:457] loss <- ip2
I0625 09:04:33.404036 12732 net.cpp:457] loss <- label
I0625 09:04:33.404042 12732 net.cpp:414] loss -> loss
I0625 09:04:33.404049 12732 layer_factory.hpp:76] Creating layer loss
…
I0625 09:04:33.404566 12732 solver.cpp:187] Creating test net (#0) specified by net file: train_val.prototxt
I0625 09:04:33.404597 12732 net.cpp:325] The NetState phase (1) differed from the phase (0) specified by a rule in layer mnist
I0625 09:04:33.404676 12732 net.cpp:52] Initializing net from parameters:
state {
phase: TEST
}
layer {
name: "mnist"
type: "Data"
top: "data"
top: "label"
include {
phase: TEST
}
transform_param {
mean_file: "/usr/share/digits/digits/jobs/20160625-090328-4c6a/mean.binaryproto"
}
data_param {
source: "/usr/share/digits/digits/jobs/20160625-090328-4c6a/val_db"
batch_size: 100
backend: LMDB
}
}
layer {
name: "scale"
type: "Power"
bottom: "data"
top: "scale"
power_param {
scale: 0.0125
}
}
layer {
name: "conv1"
type: "Convolution"
bottom: "scale"
top: "conv1"
param {
lr_mult: 1
}
param {
lr_mult: 2
}
convolution_param {
num_output: 20
kernel_size: 5
stride: 1
weight_filler {
type: "xavier"
}
bias_filler {
type: "constant"
}
}
}
layer {
name: "pool1"
type: "Pooling"
bottom: "conv1"
top: "pool1"
pooling_param {
pool: MAX
kernel_size: 2
stride: 2
}
}
layer {
name: "conv2"
type: "Convolution"
bottom: "pool1"
top: "conv2"
param {
lr_mult: 1
}
param {
lr_mult: 2
}
convolution_param {
num_output: 50
kernel_size: 5
stride: 1
weight_filler {
type: "xavier"
}
bias_filler {
type: "constant"
}
}
}
layer {
name: "pool2"
type: "Pooling"
bottom: "conv2"
top: "pool2"
pooling_param {
pool: MAX
kernel_size: 2
stride: 2
}
}
layer {
name: "ip1"
type: "InnerProduct"
bottom: "pool2"
top: "ip1"
param {
lr_mult: 1
}
param {
lr_mult: 2
}
inner_product_param {
num_output: 500
weight_filler {
type: "xavier"
}
bias_filler {
type: "constant"
}
}
}
layer {
name: "relu1"
type: "ReLU"
bottom: "ip1"
top: "ip1"
}
layer {
name: "ip2"
type: "InnerProduct"
bottom: "ip1"
top: "ip2"
param {
lr_mult: 1
}
param {
lr_mult: 2
}
inner_product_param {
num_output: 15
weight_filler {
type: "xavier"
}
bias_filler {
type: "constant"
}
}
}
layer {
name: "loss"
type: "SoftmaxWithLoss"
bottom: "ip2"
bottom: "label"
top: "loss"
}
layer {
name: "accuracy"
type: "Accuracy"
bottom: "ip2"
bottom: "label"
top: "accuracy"
include {
phase: TEST
}
}
I0625 09:04:33.404732 12732 layer_factory.hpp:76] Creating layer mnist
I0625 09:04:33.404839 12732 net.cpp:109] Creating Layer mnist
I0625 09:04:33.404850 12732 net.cpp:414] mnist -> data
I0625 09:04:33.404862 12732 net.cpp:414] mnist -> label
I0625 09:04:33.404882 12732 data_transformer.cpp:25] Loading mean file from: /usr/share/digits/digits/jobs/20160625-090328-4c6a/mean.binaryproto
I0625 09:04:33.406352 12741 db_lmdb.cpp:36] Opened lmdb /usr/share/digits/digits/jobs/20160625-090328-4c6a/val_db
I0625 09:04:33.406586 12732 data_layer.cpp:45] output data size: 100,3,32,32
I0625 09:04:33.412863 12732 net.cpp:153] Setting up mnist
I0625 09:04:33.412891 12732 net.cpp:160] Top shape: 100 3 32 32 (307200)
I0625 09:04:33.412900 12732 net.cpp:160] Top shape: 100 (100)
I0625 09:04:33.412906 12732 net.cpp:168] Memory required for data: 1229200
I0625 09:04:33.412914 12732 layer_factory.hpp:76] Creating layer label_mnist_1_split
I0625 09:04:33.413235 12732 net.cpp:109] Creating Layer label_mnist_1_split
I0625 09:04:33.413250 12732 net.cpp:457] label_mnist_1_split <- label
I0625 09:04:33.413261 12732 net.cpp:414] label_mnist_1_split -> label_mnist_1_split_0
I0625 09:04:33.413274 12732 net.cpp:414] label_mnist_1_split -> label_mnist_1_split_1
I0625 09:04:33.417067 12732 net.cpp:153] Setting up label_mnist_1_split
I0625 09:04:33.417095 12732 net.cpp:160] Top shape: 100 (100)
I0625 09:04:33.417106 12732 net.cpp:160] Top shape: 100 (100)
I0625 09:04:33.417112 12732 net.cpp:168] Memory required for data: 1230000
I0625 09:04:33.417120 12732 layer_factory.hpp:76] Creating layer scale
I0625 09:04:33.417134 12732 net.cpp:109] Creating Layer scale
I0625 09:04:33.417140 12732 net.cpp:457] scale <- data
I0625 09:04:33.417150 12732 net.cpp:414] scale -> scale
I0625 09:04:33.417210 12732 net.cpp:153] Setting up scale
I0625 09:04:33.417222 12732 net.cpp:160] Top shape: 100 3 32 32 (307200)
I0625 09:04:33.417228 12732 net.cpp:168] Memory required for data: 2458800
I0625 09:04:33.417234 12732 layer_factory.hpp:76] Creating layer conv1
I0625 09:04:33.417246 12732 net.cpp:109] Creating Layer conv1
I0625 09:04:33.417253 12732 net.cpp:457] conv1 <- scale
I0625 09:04:33.417263 12732 net.cpp:414] conv1 -> conv1
I0625 09:04:33.419237 12732 net.cpp:153] Setting up conv1
I0625 09:04:33.419260 12732 net.cpp:160] Top shape: 100 20 28 28 (1568000)
I0625 09:04:33.419266 12732 net.cpp:168] Memory required for data: 8730800
I0625 09:04:33.419282 12732 layer_factory.hpp:76] Creating layer pool1
I0625 09:04:33.419296 12732 net.cpp:109] Creating Layer pool1
I0625 09:04:33.419303 12732 net.cpp:457] pool1 <- conv1
I0625 09:04:33.419312 12732 net.cpp:414] pool1 -> pool1
I0625 09:04:33.419368 12732 net.cpp:153] Setting up pool1
I0625 09:04:33.419378 12732 net.cpp:160] Top shape: 100 20 14 14 (392000)
I0625 09:04:33.419384 12732 net.cpp:168] Memory required for data: 10298800
I0625 09:04:33.419390 12732 layer_factory.hpp:76] Creating layer conv2
I0625 09:04:33.419401 12732 net.cpp:109] Creating Layer conv2
I0625 09:04:33.419409 12732 net.cpp:457] conv2 <- pool1
I0625 09:04:33.419416 12732 net.cpp:414] conv2 -> conv2
I0625 09:04:33.420606 12732 net.cpp:153] Setting up conv2
I0625 09:04:33.420631 12732 net.cpp:160] Top shape: 100 50 10 10 (500000)
I0625 09:04:33.420641 12732 net.cpp:168] Memory required for data: 12298800
I0625 09:04:33.420658 12732 layer_factory.hpp:76] Creating layer pool2
I0625 09:04:33.420671 12732 net.cpp:109] Creating Layer pool2
I0625 09:04:33.420680 12732 net.cpp:457] pool2 <- conv2
I0625 09:04:33.420689 12732 net.cpp:414] pool2 -> pool2
I0625 09:04:33.420748 12732 net.cpp:153] Setting up pool2
I0625 09:04:33.420763 12732 net.cpp:160] Top shape: 100 50 5 5 (125000)
I0625 09:04:33.420768 12732 net.cpp:168] Memory required for data: 12798800
I0625 09:04:33.420775 12732 layer_factory.hpp:76] Creating layer ip1
I0625 09:04:33.420789 12732 net.cpp:109] Creating Layer ip1
I0625 09:04:33.420794 12732 net.cpp:457] ip1 <- pool2
I0625 09:04:33.420805 12732 net.cpp:414] ip1 -> ip1
I0625 09:04:33.429383 12732 net.cpp:153] Setting up ip1
I0625 09:04:33.429411 12732 net.cpp:160] Top shape: 100 500 (50000)
I0625 09:04:33.429419 12732 net.cpp:168] Memory required for data: 12998800
I0625 09:04:33.429435 12732 layer_factory.hpp:76] Creating layer relu1
I0625 09:04:33.429448 12732 net.cpp:109] Creating Layer relu1
I0625 09:04:33.429455 12732 net.cpp:457] relu1 <- ip1
I0625 09:04:33.429463 12732 net.cpp:400] relu1 -> ip1 (in-place)
I0625 09:04:33.429476 12732 net.cpp:153] Setting up relu1
I0625 09:04:33.429482 12732 net.cpp:160] Top shape: 100 500 (50000)
I0625 09:04:33.429487 12732 net.cpp:168] Memory required for data: 13198800
I0625 09:04:33.429492 12732 layer_factory.hpp:76] Creating layer ip2
I0625 09:04:33.429502 12732 net.cpp:109] Creating Layer ip2
I0625 09:04:33.429507 12732 net.cpp:457] ip2 <- ip1
I0625 09:04:33.429517 12732 net.cpp:414] ip2 -> ip2
I0625 09:04:33.429710 12732 net.cpp:153] Setting up ip2
I0625 09:04:33.429721 12732 net.cpp:160] Top shape: 100 15 (1500)
I0625 09:04:33.429759 12732 net.cpp:168] Memory required for data: 13204800
I0625 09:04:33.429769 12732 layer_factory.hpp:76] Creating layer ip2_ip2_0_split
I0625 09:04:33.429777 12732 net.cpp:109] Creating Layer ip2_ip2_0_split
I0625 09:04:33.429782 12732 net.cpp:457] ip2_ip2_0_split <- ip2
I0625 09:04:33.429790 12732 net.cpp:414] ip2_ip2_0_split -> ip2_ip2_0_split_0
I0625 09:04:33.429797 12732 net.cpp:414] ip2_ip2_0_split -> ip2_ip2_0_split_1
I0625 09:04:33.429837 12732 net.cpp:153] Setting up ip2_ip2_0_split
I0625 09:04:33.429847 12732 net.cpp:160] Top shape: 100 15 (1500)
I0625 09:04:33.429853 12732 net.cpp:160] Top shape: 100 15 (1500)
I0625 09:04:33.429859 12732 net.cpp:168] Memory required for data: 13216800
I0625 09:04:33.429864 12732 layer_factory.hpp:76] Creating layer loss
I0625 09:04:33.429872 12732 net.cpp:109] Creating Layer loss
I0625 09:04:33.429879 12732 net.cpp:457] loss <- ip2_ip2_0_split_0
I0625 09:04:33.429886 12732 net.cpp:457] loss <- label_mnist_1_split_0
I0625 09:04:33.429894 12732 net.cpp:414] loss -> loss
…
